Namespace(batch_size=256, context=False, cuda=True, epochs=1500, log_interval=10, lr=0.1, name='', no_cuda=False, seed=1, test_batch_size=1000)
Net(
  (blocks): ModuleList(
    (0): Sequential(
      (0): Conv2d(3, 128, kernel_size=(5, 5), stride=(1, 1), padding=(2, 2))
      (1): BatchNorm2d(128, eps=1e-05, momentum=0.1, affine=True, track_running_stats=True)
      (2): ReLU()
      (3): MaxPool2d(kernel_size=(3, 3), stride=(3, 3), padding=0, dilation=1, ceil_mode=False)
    )
    (1): Sequential(
      (0): Conv2d(128, 128, kernel_size=(5, 5), stride=(1, 1), padding=(2, 2))
      (1): BatchNorm2d(128, eps=1e-05, momentum=0.1, affine=True, track_running_stats=True)
      (2): ReLU()
      (3): AvgPool2d(kernel_size=(3, 3), stride=(3, 3), padding=0)
    )
    (2): Sequential(
      (0): Conv2d(128, 128, kernel_size=(5, 5), stride=(1, 1), padding=(2, 2))
      (1): BatchNorm2d(128, eps=1e-05, momentum=0.1, affine=True, track_running_stats=True)
      (2): ReLU()
      (3): AvgPool2d(kernel_size=(3, 3), stride=(3, 3), padding=0)
    )
  )
  (auxillary_nets): ModuleList(
    (0): ConvSynthesizer(
      (input_trigger): Conv2d(128, 128, kernel_size=(5, 5), stride=(1, 1), padding=(2, 2))
      (hidden): Conv2d(128, 128, kernel_size=(5, 5), stride=(1, 1), padding=(2, 2))
      (output): Conv2d(128, 128, kernel_size=(5, 5), stride=(1, 1), padding=(2, 2))
      (fc): Linear(in_features=128, out_features=10, bias=True)
      (bn1): BatchNorm2d(128, eps=1e-05, momentum=0.1, affine=True, track_running_stats=True)
      (bn2): BatchNorm2d(128, eps=1e-05, momentum=0.1, affine=True, track_running_stats=True)
    )
    (1): ConvSynthesizer(
      (input_trigger): Conv2d(128, 128, kernel_size=(5, 5), stride=(1, 1), padding=(2, 2))
      (hidden): Conv2d(128, 128, kernel_size=(5, 5), stride=(1, 1), padding=(2, 2))
      (output): Conv2d(128, 128, kernel_size=(5, 5), stride=(1, 1), padding=(2, 2))
      (fc): Linear(in_features=128, out_features=10, bias=True)
      (bn1): BatchNorm2d(128, eps=1e-05, momentum=0.1, affine=True, track_running_stats=True)
      (bn2): BatchNorm2d(128, eps=1e-05, momentum=0.1, affine=True, track_running_stats=True)
    )
    (2): Sequential(
      (0): View()
      (1): Linear(in_features=128, out_features=10, bias=True)
    )
  )
  (main_cnn): rep(
    (blocks): ModuleList(
      (0): Sequential(
        (0): Conv2d(3, 128, kernel_size=(5, 5), stride=(1, 1), padding=(2, 2))
        (1): BatchNorm2d(128, eps=1e-05, momentum=0.1, affine=True, track_running_stats=True)
        (2): ReLU()
        (3): MaxPool2d(kernel_size=(3, 3), stride=(3, 3), padding=0, dilation=1, ceil_mode=False)
      )
      (1): Sequential(
        (0): Conv2d(128, 128, kernel_size=(5, 5), stride=(1, 1), padding=(2, 2))
        (1): BatchNorm2d(128, eps=1e-05, momentum=0.1, affine=True, track_running_stats=True)
        (2): ReLU()
        (3): AvgPool2d(kernel_size=(3, 3), stride=(3, 3), padding=0)
      )
      (2): Sequential(
        (0): Conv2d(128, 128, kernel_size=(5, 5), stride=(1, 1), padding=(2, 2))
        (1): BatchNorm2d(128, eps=1e-05, momentum=0.1, affine=True, track_running_stats=True)
        (2): ReLU()
        (3): AvgPool2d(kernel_size=(3, 3), stride=(3, 3), padding=0)
      )
    )
  )
)
n: 3, epoch 0, loss: 2.05954, train top1:28.276 test top1:39.11 
n: 3, epoch 1, loss: 1.86650, train top1:39.926 test top1:44.48 
n: 3, epoch 2, loss: 1.73583, train top1:46.672 test top1:50.63 
n: 3, epoch 3, loss: 1.62950, train top1:50.866 test top1:54.01 
…
